SWP Project RELU/Final code/Functions/Models/min_5.pth (torch, 2288 bytes, 3 tensors)

hidden.weight f4 [5, 3]
0	0x3f3953f9	0.7239376
1	0xbf303f32	-0.6884643
2	0x3d8cd5cf	0.06876718
3	0xbf1dd8f4	-0.6165917
4	0xbe900cf6	-0.28134888
5	0x3f759ff2	0.9594718
6	0xbe576567	-0.21034776
7	0x3f328c2d	0.6974514
8	0xbeadd87f	-0.33954236
9	0x3c885945	0.01664413
10	0x3dc7dc21	0.09758783
11	0x3ef27aa1	0.47359183
12	0x3ec3a4cb	0.38211665
13	0x3eeb9ddb	0.46018872
14	0x3f4c01ef	0.7969045

hidden.bias f4 [5]
0	0xbf285a8e	-0.65763175
1	0x3f4170a6	0.7556251
2	0x3eda779b	0.42669377
3	0x3f047a4f	0.5174913
4	0xbeaeccb8	-0.34140563

output.weight f4 [1, 5]
0	0xbf30067f	-0.6875991
1	0xbf56e00e	-0.8393563
2	0xbf1ebc5a	-0.6200615
3	0x3f6d7b29	0.9276605
4	0x3ea60488	0.32425332
